assets/models/fsl_classifier.tflite (tflite, 7512 bytes, 6 tensors)

arith.constant f4 [10]
0.031749245 1.8397696 0.025986595 -0.0018309131 2.5942523 0.5455813 0.731509 -0.50510764
-0.39474475 0.6081452
00000000: 7f0b 023d 927d eb3f d7e1 d43c 40fb efba
00000010: 3b08 2640 37ab 0b3f 2c44 3b3f bc4e 01bf
00000020: fc1b cabe 67af 1b3f

arith.constant1 f4 [26]
-1.4194638 0.6527091 -1.7572423 1.0644118 0.49025792 0.55798936 -0.44703174 0.20200126
0.7847353 -1.1416911 0.21884578 0.9630781 -0.52915096 0.5120915 -1.5494794 0.033231918
-1.3744707 0.7886938 -0.43122625 -0.28497618 0.84016 1.1624335 0.6395206 0.54283047
-1.7720441 0.83525735
00000000: fdb0 b5bf f217 273f 51ed e0bf a53e 883f
00000010: 1603 fb3e 64d8 0e3f 58e1 e4be 6bd9 4e3e
00000020: 6ae4 483f ef22 92bf 1c19 603e 498c 763f
00000030: 7076 07bf 6e18 033f 5755 c6bf 311e 083d
00000040: a8ee afbf d6e7 493f b0c9 dcbe 66e8 91be
00000050: ba14 573f 9fca 943f 9fb7 233f f0f6 0a3f
00000060: 57d2 e2bf 6dd3 553f

arith.constant2 f4 [26, 10]
0.5511218 0.22619979 0.007195083 0.08659897 -0.057994496 -1.0851204 -0.27333263 0.28723216
0.086062364 0.020831766 -1.7606721 0.85593927 0.29789037 0.057442505 -0.24029662 -0.44092736
-0.32012668 -0.22645798 -0.86868906 -1.9496504 -0.63366425 0.27812296 -0.4665918 0.40624192
-0.88249224 0.14451584 0.73230463 0.70022166 0.51667255 -0.35551435 -0.8021498 0.12068679
-0.6381858 -1.084753 -0.23054603 0.22391337 1.1082851 0.043997586 0.012261876 -1.9184375
-0.67334133 0.44642216 -0.3697368 0.44225886 -0.17387871 -1.3137822 -0.015368472 0.3664735
0.13156377 -0.65468 -1.603787 0.63351876 -0.026496684 0.1606061 -0.28276688 -1.2799385
0.5430583 -0.12187971 0.034308437 -1.3285352 0.41008902 -1.5888143 0.22222245 -0.22191285
-0.21653654 0.3901842 -0.042122256 -0.5670012 -0.38086498 0.23154211 -0.18613178 -1.5941443
-0.2165251 -0.287572 -0.38788298 0.62834615 0.4062324 -0.7886211 0.41253465 0.30558082
-0.3372856 -0.5970255 0.4128553 0.28067383 0.60839516 -1.6511871 -0.2934211 0.2787622
-0.46173888 -0.49727273 0.6372052 -1.2783527 0.17289256 -0.009696762 -0.6793801 0.36470592
0.1611857 0.3949764 -0.30078024 0.0177813 0.21045345 -1.3756232 -0.19757965 -0.25497895
-0.38988927 0.6504131 0.066042334 -0.70653707 0.34401155 0.08805481 -1.0441161 -0.11441231
0.22900346 -0.43467793 0.38871533 -1.0646548 0.1788392 -0.6466956 0.68986446 -0.21795087
0.1746021 0.4209444 -1.6926763 0.67810106 0.20612144 -0.9184947 -0.60230654 -0.44747797
-1.1277881 -0.10132321 0.37113234 -0.14015786 -1.2037069 -0.0011131456 0.59509796 -1.2475446
-1.6786118 -0.3264641 -1.1626041 0.44125336 0.21596225 0.26498467 -0.5460733 0.4209365
-0.79953825 0.21437508 0.24446854 0.7111288 -0.0120692495 -0.88542306 0.18684365 -1.0403662
0.5900461 0.22974177 -1.4109198 0.07497566 -0.5304675 0.35960117 0.35075605 0.4209908
-0.6008963 -1.1927977 0.44085693 0.2583311 -1.049408 0.2632294 0.13447887 0.53839105
0.56402695 0.17710444 -1.0481387 0.20538156 -1.2141961 -1.6867338 0.9459662 -1.2155567
0.30471334 -3.1063452 -1.2783786 -0.5072084 0.15445597 0.28040737 -0.4053327 0.6542944
0.17132626 -1.4143552 -0.5892855 -0.093894616 -0.8431604 -0.3472467 0.5881443 -0.51132
-1.847793 -0.631572 -0.11257796 0.50093067 -0.08323828 0.0042107506 -1.231368 0.7297688
-0.94166714 0.23377305 -1.6178014 -2.8277543 1.0091892 -0.36889738 -0.581225 -2.1005507
-2.5986252 -0.70457774 -1.0854615 0.4009996 -1.0770247 -3.7701378 0.5410291 0.21520197
-0.7910672 -1.2630352 -1.5654083 -0.8329989 -2.6058347 1.378767 -1.3459058 -0.9168856
-0.39219943 0.14975324 -0.57939154 -0.79803926 -1.0690376 -1.4061645 0.39223242 -0.30764294
-0.749 -1.4173853 -0.1976114 0.4804737 0.12848632 -0.52252847 -0.45321837 -0.24012382
0.21691282 -0.77547586 0.39527512 0.327753 0.07158184 -0.4929573 -0.19369987 0.55294836
0.044475242 0.25965506 -0.14910313 -0.3681069 0.20912685 -0.950887 0.8050304 -0.2871082
00000000: 5116 0d3f eba0 673e bbc4 eb3b cd5a b13d
00000010: a38b 6dbd 3ae5 8abf 41f2 8bbe 1810 933e
00000020: 7741 b03d 61a7 aa3c b45d e1bf d61e 5b3f
00000030: 1685 983e d548 6b3d 5110 76be 3bc1 e1be
00000040: a5e7 a3be 9ae4 67be 6862 5ebf 258e f9bf
00000050: d237 22bf 2266 8e3e 1fe5 eebe f1fe cf3e
00000060: 03eb 61bf f6fb 133e 5178 3b3f ba41 333f
00000070: a744 043f fa05 b6be b059 4dbf a32a f73d
00000080: 2560 23bf 30d9 8abf 4214 6cbe 8c49 653e
00000090: 49dc 8d3f d036 343d 09e6 483c 5c8f f5bf
000000a0: 1960 2cbf 7291 e43e 244e bdbe c16f e23e
000000b0: 430d 32be 042a a8bf 0bcc 7bbc 6aa2 bb3e
000000c0: a7b8 063e 1c99 27bf e448 cdbf 492e 223f
000000d0: 930f d9bc ed75 243e d2c6 90be 06d5 a3bf
000000e0: de05 0b3f 129c f9bd 0187 0c3d 710d aabf
000000f0: 30f7 d13e 445e cbbf 488e 633e 1f3d 63be
00000100: c1bb 5dbe 39c6 c73e 6388 2cbd fe26 11bf
00000110: bc00 c3be 6019 6d3e 5499 3ebe ec0c ccbf
00000120: c1b8 5dbe a33c 93be 9998 c6be 4bdb 203f
00000130: b1fd cf3e 13e3 49bf be37 d33e 1775 9c3e
00000140: b3b0 acbe aad6 18bf c561 d33e 7bb4 8f3e
00000150: c9bf 1b3f 195a d3bf 4a3b 96be ebb9 8e3e
00000160: 0a69 ecbe 889a febe e11f 233f 10a1 a3bf
00000170: bf0a 313e 2bdf 1ebc dbeb 2dbf bcba ba3e
00000180: dd0d 253e 593a ca3e deff 99be 17aa 913c
00000190: 1c81 573e 6c14 b0bf 5252 4abe 9a8c 82be
000001a0: 919f c7be 7981 263f 3441 873d 9ddf 34bf
000001b0: 4822 b03e 1556 b43d 99a5 85bf 0051 eabd
000001c0: e27f 6a3e 1b8e debe b205 c73e 9c46 88bf
000001d0: a021 373e d88d 25bf f59a 303f 832e 5fbe
000001e0: e5ca 323e 0686 d73e 9ea9 d8bf 0898 2d3f
000001f0: 8011 533e 7822 6bbf c330 1abf d51b e5be
00000200: 5c5b 90bf 8b82 cfbd 0f05 be3e 8b85 0fbe
00000210: 1113 9abf f8e6 91ba 5758 183f 8baf 9fbf
00000220: c0dc d6bf 4d26 a7be 36d0 94bf f6eb e13e
00000230: 3525 5d3e 12ac 873e 76cb 0bbf fd84 d73e
00000240: 8aae 4cbf 2485 5b3e f655 7a3e 890c 363f
00000250: 1abe 45bc 16ab 62bf f153 3f3e b82a 85bf
00000260: 430d 173f 6d41 6b3e 0599 b4bf d78c 993d
00000270: b8cc 07bf a51d b83e 4c96 b33e 1b8c d73e
00000280: 57d4 19bf 98ad 98bf 00b8 e13e f943 843e
00000290: 0053 86bf 01c6 863e d4b4 093e ffd3 093f
000002a0: 1264 103f de5a 353e 6929 86bf 8b4f 523e
000002b0: c76a 9bbf e5e6 d7bf d72a 723f 5d97 9bbf
000002c0: 6303 9c3e 5cce 46c0 e9a1 a3bf 69d8 01bf
000002d0: b529 1e3e 8e91 8f3e c587 cfbe d67f 273f
000002e0: 2770 2f3e 9709 b5bf 6adb 16bf d24b c0bd
000002f0: 5cd9 57bf 52ca b1be a090 163f dee5 02bf
00000300: 7b84 ecbf b4ae 21bf 468f e6bd fe3c 003f
00000310: d578 aabd 56fa 893b 779d 9dbf 21d2 3a3f
00000320: 1911 71bf 3462 6f3e 1e14 cfbf edf9 34c0
00000330: 1d2d 813f 1ee0 bcbe 29cb 14bf 6c6f 06c0
00000340: e04f 26c0 355f 34bf 67f0 8abf d24f cd3e
00000350: f2db 89bf f049 71c0 e280 0a3f e85d 5c3e
00000360: 6183 4abf 23ab a1bf 4d5f c8bf 6a3f 55bf
00000370: ffc5 26c0 707b b03f a446 acbf 04b9 6abf
00000380: 5dce c8be ea58 193e 0153 14bf 4d4c 4cbf
00000390: 39d6 88bf 33fd b3bf b0d2 c83e 6083 9dbe
000003a0: 77be 3fbf e26c b5bf a55a 4abe a600 f63e
000003b0: eb91 033e 6dc4 05bf 3d0c e8be 05e3 75be
000003c0: 651e 5e3e 9685 46bf 8061 ca3e 3ecf a73e
000003d0: 8099 923d e664 fcbe 4259 46be 068e 0d3f
000003e0: ac2b 363d 82f1 843e 7eae 18be 8278 bcbe
000003f0: 5925 563e 556d 73bf 7916 4e3f d9ff 92be

arith.constant3 f4 [10, 20]
-0.0008112418 0.90379524 -0.06774411 -0.11388513 0.4888211 -0.06509036 3.0569403 0.50874424
0.01663528 0.33986917 0.256781 -0.4112305 0.89961755 1.1095122 1.700675 0.06847793
0.027167104 -0.04195652 0.5000778 0.06941042 -0.9682176 0.11528873 -1.8611737 0.12153024
0.12652142 -1.1619757 -0.42133883 0.15816422 -0.763214 0.22764167 0.49255005 0.54266244
0.17284836 0.8118551 -0.19933368 3.347539 2.6482074 0.33652154 0.13531585 -1.7590863
0.90466774 -0.24613494 0.7800472 0.2593547 0.42257828 0.6787712 0.19728906 0.24415803
1.03448 0.9958821 1.1752509 2.1785815 -0.19395848 -0.06560126 0.03646094 0.23359783
-0.22168797 0.23519942 0.040522162 0.96437097 0.51370275 -0.20487088 0.23301846 -0.029526664
1.4612752 0.8021893 1.2847778 -0.06539477 0.094871104 -0.5561293 0.8660121 1.4585735
0.15461501 0.9932416 0.36518008 1.5119677 1.3027835 -0.14406848 0.45847377 0.11675379
-0.56612134 -0.081719324 -0.13963468 0.25737664 0.3369134 -0.97542435 1.0865428 0.021878889
0.04964812 0.6723292 0.7838473 0.109643936 -0.31903306 0.5168781 0.89037573 -1.1814291
0.04918443 -0.5356701 -0.05543166 -0.09913695 0.28575787 1.2340493 0.9707091 1.0946147
-0.3271661 0.25230604 0.12001791 1.2021763 0.15866758 0.6613556 0.34287456 -0.12646857
1.3552246 -0.1149381 0.38833663 -0.14542234 0.038873747 1.9310011 1.7529256 1.042411
0.03329853 0.97965795 -0.034110315 -0.42776227 -0.41594702 -0.2763578 0.044172306 0.7089478
0.38183787 -0.7427417 0.33046684 0.9542845 1.2070903 -0.1242526 -0.048531804 0.43967813
0.25606441 -0.02261083 0.95454675 -0.026336716 0.77200115 0.50683284 0.0042197015 0.40322685
-0.6082021 0.8903963 -0.1157578 0.23173884 0.11935635 0.5475064 0.7790868 1.8474225
0.10778225 1.6715465 -0.17411771 0.050909657 0.9656005 0.23485778 0.1180529 -0.003260374
0.78226924 0.64312226 -0.26555094 -0.5251334 1.079016 0.6704723 -0.30098307 0.18379146
0.21976916 1.3785952 0.8845688 -0.6160709 0.32758918 -0.33929616 -0.19014223 0.16994356
0.34416276 -1.0248942 -1.0566646 0.15802374 0.5752279 0.028936125 0.34267968 0.09391144
0.7510283 -0.06593702 0.49219888 0.13990147 0.6144902 0.6176201 -1.3932276 -0.27542004
0.048398666 0.63109106 -1.099825 0.15953134 -0.018799376 -0.21834533 -0.26764193 0.38583392
00000000: 84a9 54ba 205f 673f 6dbd 8abd 9b3c e9bd
00000010: c246 fa3e 184e 85bd e9a4 4340 103d 023f
00000020: b646 883c 5503 ae3e cd78 833e ce8c d2be
00000030: 564d 663f 7f04 8e3f b8af d93f 283e 8c3d
00000040: 8c8d de3c 9ada 2bbd 1905 003f 0d27 8e3d
00000050: 1cdd 77bf 7f1c ec3d f13a eebf d9e4 f83d
00000060: d58e 013e 9fbb 94bf b9b9 d7be cdf5 213e
00000070: fe61 43bf e61a 693e 852f fc3e edeb 0a3f
00000080: 29ff 303e bcd5 4f3f 211e 4cbe 143e 5640
00000090: 3b7c 2940 8d4c ac3e 3d90 0a3e bd29 e1bf
000000a0: 4e98 673f cc0a 7cbe 2cb1 473f 24ca 843e
000000b0: 2e5c d83e f3c3 2d3f 2506 4a3e 9004 7a3e
000000c0: d769 843f 21f2 7e3f 9f6e 963f e16d 0b40
000000d0: 0d9d 46be f459 86bd 1158 153d 4534 6f3e
000000e0: 2c02 63be 1ed8 703e 91fa 253d 04e1 763f
000000f0: 0682 033f acc9 51be 649c 6e3e e7e1 f1bc
00000100: 110b bb3f 475c 4d3f 9973 a43f b1ed 85bd
00000110: c84b c23d 7d5e 0ebf f8b2 5d3f 89b2 ba3f
00000120: 6653 1e3e 1545 7e3f e2f8 ba3e 2888 c13f
00000130: 9cc1 a63f b086 13be 13bd ea3e 9c1c ef3d
00000140: 54ed 10bf 765c a7bd 65fc 0ebe dfc6 833e
00000150: ea7f ac3e 69b5 79bf d613 8b3f 5b3b b33c
00000160: d45b 4b3d c41d 2c3f 37aa 483f 008d e03d
00000170: 4d58 a3be 2052 043f aaef 633f 1239 97bf
00000180: 9d75 493d ad21 09bf 4f0c 63bd 5008 cbbd
00000190: db4e 923e 54f5 9d3f 6480 783f 561c 8c3f
000001a0: 5182 a7be 422e 813e f3cb f53d eae0 993f
000001b0: c179 223e 9a4e 293f 418d af3e fa80 01be
000001c0: 0078 ad3f ab64 ebbd 0fd4 c63e 98e9 14be
000001d0: 143a 1f3d 0b2b f73f de5f e03f b96d 853f
000001e0: 0a64 083d ddca 7a3f 42b7 0bbd a803 dbbe
000001f0: 02f7 d4be c57e 8dbe 05ee 343d 9a7d 353f
00000200: 4180 c33e 5224 3ebf f332 a93e fd4b 743f
00000210: ef81 9a3f 2678 febd 49c9 46bd 7e1d e13e
00000220: e01a 833e 593a b9bc 2d5d 743f 19c0 d7bc
00000230: dea1 453f ccbf 013f 6c45 8a3b c073 ce3e
00000240: 22b3 1bbf 03f1 633f 6d12 edbd f24c 6d3e
00000250: 1a71 f43d 6129 0c3f 3c72 473f 5778 ec3f
00000260: f1bc dc3d 3cf5 d53f ea4b 32be a586 503d
00000270: 9831 773f 8f7e 703e b8c5 f13d 00ac 55bb
00000280: cc42 483f a9a3 243f 4bf6 87be 246f 06bf
00000290: 321d 8a3f 13a4 2b3f 741a 9abe d433 3c3e
000002a0: 2b0b 613e cf75 b03f 1a73 623f d3b6 1dbf
000002b0: c5b9 a73e 3ab8 adbe a5b4 42be af05 2e3e
000002c0: 1a36 b03e bc2f 83bf c940 87bf fad0 213e
000002d0: 2342 133f 740b ed3c b673 af3e a454 c03d
000002e0: 6443 403f fd09 87bd 7e01 fc3e 5542 0f3e
000002f0: 3b4f 1d3f 5a1c 1e3f 4855 b2bf db03 8dbe
00000300: ae3d 463d 2f8f 213f 11c7 8cbf 2f5c 233e
00000310: 2601 9abc eb95 5fbe 5d08 89be 068c c53e

sequential_1/dense_1/MatMul f4 [20, 42]
0.0467934 0.29856306 0.11475293 1.1001593 -0.07855635 0.7725261 0.016295103 0.7922161
-0.16715126 0.4152825 0.1067025 -0.32447103 -0.016061438 0.5375189 0.081279375 0.35561723
0.017473536 0.21295667 0.086154215 -0.9604686 0.075407065 0.79476786 0.07300526 0.3486329
0.03741987 0.30333668 0.02605248 -0.9206944 0.05049713 0.55307907 -0.0384796 0.5187227
0.041588984 0.40275756 0.25012857 -0.2833599 -0.055267636 0.30828267 0.1464052 0.40766448
0.48699182 0.7619468 -0.009433717 -0.16228832 0.42351404 -0.8496816 0.1378661 -0.051984683
0.40381768 0.10733127 0.7249789 0.0240132 -0.74966574 -0.025549427 -0.43178046 -0.017379206
-0.15426895 -0.09258603 0.09634063 -0.08918397 -1.3028017 0.035889078 0.008077189 0.019574082
0.50658226 0.030459894 0.8116771 0.054744836 -1.5299476 0.03786976 0.025758244 0.03641759
0.4386141 -0.007598309 1.0842321 -0.013345311 -0.42088896 0.11303464 0.15050891 0.0615518
0.58511937 0.007069393 1.3941493 -0.103927 -0.032699436 0.12085903 0.103605546 -1.2329613
-0.035282183 -0.52611697 -0.0870506 -0.2566425 -0.06765302 -0.20929247 0.06508854 -0.10037252
0.10092245 0.19255623 -0.11239221 0.19718516 -0.20796849 0.2743155 0.23015828 0.01573259
-0.016747985 0.21632035 -0.084891245 0.2669017 -0.2781665 0.3270837 0.06958811 0.30138472
0.02859145 0.45295188 0.15187417 0.6101834 0.01997623 0.5819148 0.27258673 0.70763785
0.08935658 0.81682307 0.24575609 0.81366223 0.45435864 0.67249703 0.006256342 0.04879892
0.26779372 -0.34076193 0.11025768 0.09583801 -0.33627963 0.15438922 -0.44681787 0.15939079
0.42854768 -0.012693228 0.41369504 0.055975534 0.39591837 0.01896474 0.4268384 0.011208619
-0.054179676 0.058729377 -1.0548356 0.05422325 -0.81956285 0.041788843 -0.64329076 0.045829505
-0.48221868 0.115698576 -0.91698605 0.116811804 -0.79678273 0.016820226 -0.5284573 -0.05786524
-0.6813201 0.19505647 -0.9484335 0.19104585 -0.78870815 0.13878685 -0.70890087 0.025923794
-0.13066721 -0.23254783 0.89872414 -0.051646326 0.61493665 -0.12421679 0.7930541 -0.0757477
0.7270603 0.012018016 0.5126268 -0.02703996 0.39253247 -0.003460366 0.33999816 0.09645902
0.26622042 0.15020297 0.767611 -0.037151426 0.13685822 -0.02431031 0.1315962 0.10456783
0.110731766 0.16099468 0.22617842 -0.028219147 -0.10853153 -0.06525598 -0.056649946 0.05426539
-0.2327887 0.09656016 -0.6286427 -0.0684207 -0.7725194 -0.16223738 -1.0114701 -0.14731094
-1.5233339 -0.08090014 0.2485041 -0.036043763 0.24692965 1.1486764 0.15908933 1.073171
-0.01630284 0.90398294 -0.13726781 0.71622926 0.0036387835 -0.83895725 -0.039445 0.4425958
-0.04499357 0.6266631 -0.0074766455 0.6296275 -0.051071983 -1.3816934 -0.013544921 0.26625425
0.07445714 0.13562654 0.15421806 -0.3105041 -0.10033907 -0.83120716 -0.09328397 0.4996404
0.0059066634 0.34391662 0.15545997 0.45123345 -0.3357481 -0.49816486 -0.117662385 0.27417576
0.5365808 0.51920706 0.4038877 0.8369941 -0.09461343 -0.08997144 -0.10078444 0.12924427
00000000: 70aa 3f3d 42dd 983e 9603 eb3d 05d2 8c3f
00000010: 27e2 a0bd 45c4 453f 4f7d 853c adce 4a3f
00000020: b329 2bbe e89f d43e d786 da3d 1121 a6be
00000030: 4793 83bc d79a 093f cd75 a63d 7613 b63e
00000040: a924 8f3c 5011 5a3e 9f71 b03d 45e1 75bf
00000050: 056f 9a3d e875 4b3f c883 953d 0380 b23e
00000060: 9445 193d f24e 9b3e 036c d53c a1b2 6bbf
00000070: 14d6 4e3d 9796 0d3f c99c 1dbd 03cb 043f
00000080: 3659 2a3d 3d36 ce3e da10 803e 8c14 91be
00000090: 5160 62bd 3ad7 9d3e 3feb 153e 66b9 d03e
000000a0: fe56 f93e f20e 433f e08f 1abc e92e 26be
000000b0: d5d6 d83e bc84 59bf c52c 0d3e e4ed 54bd
000000c0: 31c1 ce3e 7fd0 db3d 3898 393f 55b7 c43c
000000d0: 18ea 3fbf 084d d1bc 5412 ddbe d65e 8ebc
000000e0: aef8 1dbe bf9d bdbd 3c4e c53d 16a6 b6bd
000000f0: 35c2 a6bf 6d00 133d 3056 043c d359 a03c
00000100: 60af 013f 0787 f93c 12ca 4f3f 1f3c 603d
00000110: 53d5 c3bf 521d 1b3d f402 d33c 9c2a 153d
00000120: 0792 e03e 3cfb f8bb 1ec8 8a3f 4ba6 5abc
00000130: c27e d7be b57e e73d 021f 1a3e be1d 7c3d
00000140: 62ca 153f 5ea6 e73b 7c73 b23f aed7 d4bd
00000150: d8ef 05bd f084 f73d 252f d43d add1 9dbf
00000160: 0d84 10bd 9aaf 06bf 9647 b2bd a566 83be
00000170: ab8d 8abd c450 56be 244d 853d 1c90 cdbd
00000180: 6eb0 ce3d 762d 453e e32d e6bd e8ea 493e
00000190: b1f5 54be 1573 8c3e 9dae 6b3e a2e1 803c
000001a0: 1233 89bc 1583 5d3e 76db adbd 57a7 883e
000001b0: d76b 8ebe 8477 a73e 3684 8e3d 194f 9a3e
000001c0: 9e38 ea3c 4fe9 e73e e784 1b3e fb34 1c3f
000001d0: 31a5 a33c 5ef8 143f 7d90 8b3e c127 353f
000001e0: 9500 b73d 511b 513f 7ca7 7b3e 2b4c 503f
000001f0: b2a1 e83e c428 2c3f 0002 cd3b 60e1 473d
00000200: 421c 893e 5978 aebe c7ce e13d b846 c43d
00000210: d82c acbe 3518 1e3e 50c5 e4be 5737 233e
00000220: 9a6a db3e 42f7 4fbc d6cf d33e 9a46 653d
00000230: d0b5 ca3e f15b 9b3c 908a da3e 5ba4 373c
00000240: 82eb 5dbd 378e 703d da04 87bf 3319 5e3d
00000250: dfce 51bf c72a 2b3d b4ae 24bf b8b7 3b3d
00000260: 5ee5 f6be 60f3 ec3d 99bf 6abf 073b ef3d
00000270: f4f9 4bbf 92ca 893c fa48 07bf 1a04 6dbd
00000280: fe6a 2ebf e2bc 473e 8acc 72bf 86a1 433e
00000290: c7e8 49bf 241e 0e3e 877a 35bf 235e d43c
000002a0: a0cd 05be 0521 6ebe c912 663f 198b 53bd
000002b0: 7d6c 1d3f 5f65 febd 9805 4b3f 9c21 9bbd
000002c0: a020 3a3f 36e7 443c 833b 033f e882 ddbc
000002d0: 04fa c83e 4fc7 62bb 3d14 ae3e 4f8c c53d
000002e0: 0b4e 883e cfce 193e 2882 443f 182c 18bd
000002f0: 9024 0c3e 6a26 c7bc 27c1 063e a927 d63d
00000300: 56c7 e23d cadb 243e 519b 673e d72b e7bc
00000310: c745 debd eda4 85bd c609 68bd 6345 5e3d
00000320: 2960 6ebe 55c1 c53d baee 20bf 2720 8cbd
00000330: d5c3 45bf 8e21 26be da77 81bf aed8 16be
00000340: 9bfc c2bf f9ae a5bd dc77 7e3e a0a2 13bd
00000350: 20db 7c3e d407 933f 50e8 223e ab5d 893f
00000360: 898d 85bc 6d6b 673f ef8f 0cbe cd5a 373f
00000370: a878 6e3b e7c5 56bf 1591 21bd eb9b e23e
00000380: 2d4b 38bd fe6c 203f a6fe f4bb 452f 213f
00000390: db30 51bd 54db b0bf 84eb 5dbc 7a52 883e
000003a0: fc7c 983d afe1 0a3e 57eb 1d3e 65fa 9ebe
000003b0: 927e cdbd fec9 54bf ab0b bfbd ded0 ff3e
000003c0: af8c c13b d715 b03e e630 1f3e 1208 e73e
000003d0: 2de7 abbe 770f ffbe faf8 f0bd c460 8c3e
000003e0: 5c5d 093f c1ea 043f 5eca ce3e 3f45 563f
000003f0: b0c4 c1bd f242 b8bd 1368 cebd 9c58 043e

sequential_1/dense_1/Relu;sequential_1/dense_1/BiasAdd f4 [20]
-0.9607388 -1.0392315 1.3224996 0.005016775 -1.2160398 -0.88907945 -0.9874963 -0.555218
1.2314248 0.2996446 -0.43494692 -0.33649117 -0.9166239 -1.6419221 -1.103571 -1.231864
-1.9870806 0.010985479 -0.6383026 1.520792
00000000: faf2 75bf 8a05 85bf ab47 a93f c263 a43b
00000010: 31a7 9bbf b69a 63bf 8fcc 7cbf c422 0ebf
00000020: 549f 9d3f 046b 993e 5db1 debe 9248 acbe
00000030: dda7 6abf 812a d2bf d141 8dbf b8ad 9dbf
00000040: a858 febf 70fc 333c cd67 23bf 50a9 c23f
